model/PV1_q_critic100.pth (torch, 493429 bytes, 5 tensors)

l1.weight f4 [400, 4]
00000000: 7c7b d0be 03b1 92bf 72b0 b8be f286 46bd
00000010: 8959 48bf 27f6 f0be d597 7abd 4855 5cbc
00000020: 904a 3c3f 39ec f73e 3b08 8b3e 488f 2a3d
00000030: dc67 05bf b534 0ebf 67db fd3d dd5f 883c
00000040: cb76 f23e d16e cc3e 6a9f 91be 37ae 42bd
00000050: 6437 f3be 1576 393e 6488 113e f8e5 f33c
00000060: a652 c4be 21e9 0f3f 2453 e7bd 6d03 61bc
00000070: 3227 70be 9808 b83d 1d99 32be 3b55 22bd
00000080: bfd3 8fbe f3f9 debb c88e 7fbe 69bb 09bd
00000090: c861 d93e fad2 b3bf 9790 a8be 94f4 50bd
000000a0: 2ec1 01bf 8984 8cbf 8b73 92be dfd0 1cbd
000000b0: ae93 e13e 8a1a a2be 76f8 523d c8e2 a53c
000000c0: 5134 c1be cfd2 dbbe 0809 843d 52f1 88ba
000000d0: 8984 2a3f 77a0 9fbe eb5b abbe 7b92 4cbd
000000e0: f302 75bd ee0d 0bbc d9bf acbb a5f8 86bd
000000f0: 5b75 09bf cb65 223f 26ee 99bd 4870 a2bc
00000100: 359a 89be 6d86 e63e 0426 4c3e a6ae 053d
00000110: 0e44 873f 0a46 953f bdb7 6ebd 3c97 00bc
00000120: 4254 90be 39b7 273f 010c 173f 709f b33d
00000130: deae ddbe 08ae 39be bcec b63d 8b88 3b3c
00000140: d144 383e 7d41 a8bf bf7a 97be 8ce1 31bd
00000150: 5980 793f 0cfd 20bf 3790 c9be e463 69bd
00000160: 8152 5dbe c6a5 113e a1b2 5fbe abb5 0ebd
00000170: 5374 b23f dd95 b6bf 98d9 b6be 1098 51bd
00000180: cbed 983f 84cf 80bf 7c6f babe 8c55 4dbd
00000190: 3e81 123e 3330 cdbe 33ec 16bd f470 9cbd
000001a0: d967 973f 9062 9fbd a53c b03e 6b53 553d
000001b0: 6ff9 71be 6898 aabf a3a9 a0be 0c6f 32bd
000001c0: 1fe9 debd d816 b4bf f9ba a4be 6196 54bd
000001d0: c3f0 c7be 90c4 76bd 5e10 61be 82fd f43d
000001e0: 581d c6be 8c36 5c3d 438c 1f3e 7631 233d
000001f0: aa9f 15be c0d4 8fbe 2ce4 883d 6f21 0ebe
00000200: bb59 8ebe 7866 0cbe 61ac c43d 3df0 8a3c
00000210: fdb2 44bf 3512 853f fd77 9e3e 32ac 453d
00000220: 4a4c c1be 5b66 06bf f0ad 21be f901 8abc
00000230: 00da aa3e 9bcd c5bf 03a1 b6be a440 60bd
00000240: ca9a 9c3d 6b04 aabe 5c07 8bbd babb 03bc
00000250: 04bd 26bf 15ce c9bb 6415 fa3d 9015 653c
00000260: 9e12 773f 6a60 11bf b42f ddbe 80f6 90bd
00000270: 60b5 3bbf 4d99 4ebe 0d34 3c3e bce9 ff3c
00000280: 84c1 3abf bc36 ba3e a1f0 b83d 3f5b e53c
00000290: 5628 663f 7b0d 00bf 7de0 d0be f228 83bd
000002a0: 1681 dfbe 97e7 0d3f 78f7 5abd 7e51 25bc
000002b0: 21e6 403e 5ae6 a0bd 443f 1e3e 42d6 f83c
000002c0: 27ae 23bf 256e 133c 54ee 8d3e ab08 903c
000002d0: c893 e5be ec60 1f40 9aed 4b3d 6865 a339
000002e0: 8485 313f 5e60 48bf 05d4 6bbe b6b5 f7bc
000002f0: 4714 f1bd 7c9f 823f d8d2 3b3e 6339 02bd
00000300: d419 bd3e 5992 5abf 02e9 d4bc bbcf 32bc
00000310: 1835 993f 9b85 43bf adef c0be 6304 4fbd
00000320: c7e0 e6be 111f 25bf e179 92be 2ba1 34bd
00000330: 9698 25bf c589 55bf f3f7 aabe 14a2 4fbd
00000340: d2b6 f0bd 5955 aebf 1dbf 97be b2a7 17bd
00000350: 294d 81bd 73b4 9e3e ecb3 dd3d 609a 1bbd
00000360: b3b6 723f 2e34 fb3f 3067 423e 99d1 063d
00000370: 5c50 663f e027 fcbe e65a dcbe 924a 78bd
00000380: 8a66 333f a4ac e73e 2f6e 8e3e c4ca 443d
00000390: c471 d03e 6761 9c3f 1cc4 8f3e 08f3 203d
000003a0: a843 553f 3f0b 5a3f 53de 493e 416f 1d3d
000003b0: 39ae 813f 098d a33f c1b6 b33b 2126 cc3b
000003c0: bf94 0fbd 8941 90bf e918 7cbe b23d 02bd
000003d0: 8b81 813f 0379 193f e422 d73e a8a2 863d
000003e0: 84d8 eebe a203 9ebf 8e5e a0be 44ce 37bd
000003f0: 7abb 863e bbd8 d33e 5a7f 363e 29a8 9d3c
-0.4071921 -1.146027 -0.36072117 -0.048468538 -0.7826162 -0.470628 -0.061179955 -0.013448067
0.73551273 0.4842241 0.27154717 0.04164055 -0.521116 -0.55549175 0.12395363 0.016647274
0.47356257 0.39928296 -0.28441936 -0.047529425 -0.47503197 0.18111451 0.14212185 0.029772744
-0.38344306 0.562151 -0.11295155 -0.013733727 -0.23452452 0.08986014 -0.1744122 -0.039632063
-0.28091237 -0.0068046986 -0.2495681 -0.033625994 0.42457414 -1.404876 -0.32922813 -0.051014498
-0.50685394 -1.0977947 -0.28603777 -0.038285132 0.44057983 -0.31660873 0.051506482 0.02024974
-0.37735227 -0.42934272 0.06447035 -0.0010447896 0.6660848 -0.31177112 -0.33468565 -0.049944382
-0.059817266 -0.008487208 -0.0052718935 -0.06590394 -0.53694695 0.63436574 -0.07516126 -0.01982893
-0.26875463 0.45024434 0.19936377 0.03263726 1.0567644 1.1661999 -0.058280695 -0.007848557
-0.28189284 0.6551395 0.5900269 0.08770645 -0.43297476 -0.18132794 0.08931872 0.011446129
0.17995001 -1.3144985 -0.29585835 -0.04342799 0.9746147 -0.6288612 -0.3936784 -0.05698003
-0.21613504 0.14223394 -0.21845485 -0.03484122 1.3941749 -1.4264485 -0.35712886 -0.05117041
1.1947569 -1.0063329 -0.3641318 -0.050130412 0.14307114 -0.40075836 -0.03684635 -0.076387316
1.1828567 -0.07782471 0.34421268 0.052081507 -0.23630308 -1.3327761 -0.31379423 -0.043562934
-0.10884308 -1.4069471 -0.321739 -0.051901225 -0.39050874 -0.06024605 -0.219789 0.11962415
-0.38694263 0.053762957 0.1558085 0.03984209 -0.14611688 -0.28092003 0.06684145 -0.13879941
-0.27802834 -0.13710964 0.09603191 0.016960258 -0.76835614 1.0396181 0.3095092 0.04825992
-0.37753516 -0.5249993 -0.15789008 -0.016846644 0.33369446 -1.5453371 -0.35669717 -0.054749146
0.07646711 -0.33206496 -0.06788513 -0.008040363 -0.65132165 -0.0061586 0.12211111 0.013982192
0.9651278 -0.5678774 -0.43200457 -0.07078266 -0.7332363 -0.20175667 0.18379231 0.031239383
-0.7295153 0.36369884 0.09030271 0.027997611 0.899053 -0.5002057 -0.4079627 -0.06404294
-0.43653172 0.55431503 -0.05345866 -0.01009023 0.18837787 -0.07856436 0.15453821 0.030375604
-0.6393761 0.0089984285 0.27720892 0.017582258 -0.4483931 2.4902906 0.04978714 0.00031165336
0.69344354 -0.78272045 -0.23030098 -0.030238014 -0.11771446 1.0204921 0.1834215 -0.03179301
0.36933768 -0.8537956 -0.025990013 -0.010913785 1.1969328 -0.7637574 -0.37682858 -0.050541293
-0.45093367 -0.6450053 -0.2860861 -0.044099014 -0.6468595 -0.83413345 -0.33392295 -0.05069168
-0.1175362 -1.3619796 -0.29637995 -0.03702516 -0.06313545 0.30997047 0.10825333 -0.03798902
0.94810027 1.9625299 0.18984675 0.03291473 0.8996637 -0.49249172 -0.430381 -0.06061799
0.7007834 0.45248902 0.27818438 0.048044935 0.40711796 1.2217225 0.28079307 0.039294273
0.8330636 0.8517341 0.19713716 0.038436178 1.0131294 1.2777416 0.0054844324 0.0062301313
-0.035053965 -1.127 -0.24618877 -0.03179712 1.0117658 0.59950274 0.42018807 0.06573993
-0.46649563 -1.2344859 -0.3132214 -0.044874445 0.26314908 0.4137629 0.17822018 0.019245224

l1.bias f4 [400]
00000000: c3a3 f0be 95b9 31be 02c7 1cbf 62d5 a3be
00000010: debb 57bf ca4a f23e fdc4 c93e c404 333e
00000020: da35 ce3e b94e dc3d f4b9 033e adf9 5b3a
00000030: 383f a63e 7e62 803a 68dc 70be 1806 a83e
00000040: a734 b33b 7e25 98be 7d6f 59be 4e7a 0a3f
00000050: eb37 593e d5ec 7abf 7e6f 083f 0e23 4abf
00000060: d7de 3bbf 70f6 05bf daaa 883e 00c5 48be
00000070: d354 adbe 1798 e63e d441 2c3f 9690 d7be
00000080: 595f 303e 6154 863e 0d86 403e c65b 49bf
00000090: 9823 96bd f51e 91be 179c 9abf 200b d1bd
000000a0: 3763 40be b052 98bf 65c6 903e 2529 043f
000000b0: 5841 6e3e c8f9 16bf 1d27 bbbe 8c5e 0ebe
000000c0: b978 023f ca3e 26bf 8357 b3bd 9a1c 6cbe
000000d0: 269d c1be eefd 773e d80d 8fbf 9e23 a7bf
000000e0: 18fb 2ebf 8818 50bf 8e4e e4be 6058 c7be
000000f0: 3e52 babe c3f5 8ebf 8be9 593d 1de5 843e
00000100: 58b2 023f f908 44bf a9d7 33be a2c0 df3e
00000110: 3b94 323e b26b e33e dc79 8bbf a13b dabd
00000120: bbf0 a63e b432 8e3e 43be 203f 46ef 48bf
00000130: 087c d2bd 6b52 8ebd 26be b43e 1850 963e
00000140: 5c50 36bf 875c 8a3e d212 69bf 020b 673e
00000150: a610 5dbf c020 1e3b a33d 97bf d427 56bd
00000160: 69fb f43e a813 90be 4c44 da3e dee6 393e
00000170: d91d 243e 9306 5dbf e610 663e ca82 cf3e
00000180: 6f7c 383e a87d aabc 71c8 1abf a00a 74bf
00000190: f1b0 a3be fce5 c03e 7213 c83e 4b66 713d
000001a0: 46dd 89bf 1170 56bf 1fe4 c33e ea0b bdbe
000001b0: f473 943e 9dbe 86bf 992e 8abd defe 983c
000001c0: 5b48 19be 0a9c c6be 5914 343e 3525 69be
000001d0: 0d14 5f3e 8d08 7e3e 3919 56bf 2317 a8be
000001e0: 7bb4 273e 4ba5 9f3e 6a4f 49bf 4b68 68bf
000001f0: 3109 77be b837 12bf 32b9 7abf 289f 22bf
00000200: e85c b23e 9655 9dbe ac4a b1be dc29 133e
00000210: cb83 28bf 0773 0abf 51c7 a73d e234 023c
00000220: c81a 9ebf 4d25 fa3e 4268 aa3e 8a08 66bf
00000230: 4f96 f23e 929c 31bf cfd1 e6be 900d 2a3f
00000240: 13a7 163f c54d 1e3f fc79 203f cca7 95be
00000250: a152 0ebe c1fa 63bf f5a0 94bf ec62 64bf
00000260: e7cf 4a3e 90fb 85bd b44e d23d 5a3d d8be
00000270: 961d 8fbf 829f 263e 73e9 c4be abec ccbd
00000280: c188 943e 4d2d afbe 298d 27bf 9a9e 243e
00000290: a265 d23e 1e3e cf3c 25e1 5a3d 7208 7fbf
000002a0: 0293 a5be 1aa7 c9bd bcbe ad3e a502 48bf
000002b0: e70e 80bf 31e4 893d bf01 38bb cbcf f2be
000002c0: bd3b 51be 5587 a7be cc3b a53e 05ce d63d
000002d0: 8694 9abe 7f09 ee3e cfff 1a3f 85ad 3d3e
000002e0: d62f c9bb 9765 9bbf 04af 2dbf 7375 90bf
000002f0: a315 97bf f747 81bf f60e 683e a527 953e
00000300: 58af 8cbe be53 da3e 6b36 abbe 7fbc d83b
00000310: 19a1 e83e c38d e7bc 69fe 873e f055 6b3e
00000320: 4cc3 22bf 1f62 0b3e febf 02bf 7ae3 ac3d
00000330: c2f6 22bf 41a8 c2be 2b48 82bd 91f2 cbbe
00000340: 37ee 7f3e af87 14bf 48be 44bf c1a8 82bf
00000350: 1c20 b43e 0f0a aabe 593e 2cbf 89ea bf3e
00000360: df74 d3bd 28ae 21bc b259 0dbd a8a4 d7be
00000370: aa8b b93e ab88 9b3e b518 11bf 48a1 debe
00000380: 2526 903e 1734 bf3e 0d11 c6bc e4d4 4dbf
00000390: 72d1 1b3e a255 e23d dc6f 84be a391 ec3e
000003a0: 5654 5ebf 757a 973e 5206 85bf 40ac 86bf
000003b0: 63d4 04bf 430b 4dbf 4544 2cbf 3fa4 40bf
000003c0: 2765 01be 09b6 4b3e 51b5 623d c88c 183e
000003d0: 9d82 17bf 9d9b ae3d ae99 cb3e f32e 88bf
000003e0: 815d 4abf 0bdf 813e b75b 023f 8752 a23d
000003f0: 780b a93e e92d 39be b529 043f a859 e13e
-0.4699994 -0.1735595 -0.6124116 -0.31998736 -0.8427104 0.47322685 0.39408103 0.17482287
0.4027546 0.10757203 0.12863904 0.00083913916 0.32470107 0.0009794978 -0.23521578 0.3281715
0.005468923 -0.29716104 -0.21233936 0.5409287 0.21212737 -0.98017627 0.53295124 -0.7895974
-0.733869 -0.5232916 0.2669285 -0.196064 -0.33853778 0.4503791 0.67287946 -0.42102498
0.17223872 0.2623625 0.18801136 -0.7865566 -0.07331008 -0.2834393 -1.2078885 -0.102072
-0.18787847 -1.1900234 0.28276363 0.5162528 0.23267114 -0.58974886 -0.3655328 -0.13903254
0.5096546 -0.6493956 -0.08756926 -0.23057786 -0.37815207 0.2421796 -1.11761 -1.3057745
-0.6835189 -0.8128743 -0.44591182 -0.38934612 -0.3639087 -1.116875 0.05320124 0.2595605
0.5105338 -0.7657619 -0.17562737 0.43701655 0.17439358 0.44418103 -1.0896564 -0.106559046
0.32605538 0.27773058 0.62790316 -0.784901 -0.10277563 -0.06949314 0.35301322 0.29357982
-0.7121637 0.27023718 -0.9104434 0.22562793 -0.8635353 0.0024128407 -1.1815685 -0.052284077
0.4784806 -0.28139997 0.4263023 0.18154475 0.16027011 -0.86338156 0.22467384 0.40529472
0.18016218 -0.02081187 -0.604621 -0.9532871 -0.31970933 0.37675464 0.39077336 0.058935445
-1.0770652 -0.8376475 0.3825998 -0.36923152 0.28994715 -1.052692 -0.06747169 0.018676218
-0.14969008 -0.38790923 0.17585887 -0.227681 0.21784993 0.2480795 -0.83632237 -0.32830152
0.16377442 0.31180796 -0.786368 -0.9078414 -0.241246 -0.5711627 -0.97938836 -0.63524103
0.34836507 -0.3072936 -0.34627283 0.14371437 -0.658261 -0.5408177 0.081923135 0.007947179
-1.2351923 0.48856583 0.33282667 -0.8985678 0.473803 -0.6937953 -0.45081946 0.66426945
0.58848685 0.61837417 0.62686133 -0.2922958 -0.13898708 -0.89054495 -1.161162 -0.8921344
0.19805871 -0.06542122 0.10268918 -0.42234308 -1.1180904 0.16271785 -0.38459358 -0.10006078
0.29010585 -0.3421425 -0.6544977 0.16076127 0.41093165 0.025298174 0.05343737 -0.9962226
-0.3233872 -0.09846325 0.3393458 -0.78129035 -1.0004548 0.06732977 -0.0028077213 -0.47424158
-0.20432945 -0.32720438 0.32272184 0.10488514 -0.3019144 0.4649162 0.6054658 0.18523224
-0.0061397357 -1.2140378 -0.6784518 -1.1285843 -1.1803478 -1.0100087 0.22661957 0.2913181
-0.27477527 0.42642015 -0.33439955 0.0066142674 0.45435408 -0.02826584 0.26561287 0.22982001
-0.6357925 0.13611649 -0.51074207 0.08441825 -0.6365777 -0.38018993 -0.06361421 -0.398335
0.24993216 -0.58019537 -0.76852846 -1.020775 0.35180748 -0.332108 -0.67282635 0.37483624
-0.10325026 -0.009868182 -0.03450937 -0.4211781 0.36239368 0.30377707 -0.56678325 -0.43482423
0.28154102 0.3734443 -0.024178052 -0.8040297 0.15216616 0.110514894 -0.25866592 0.46204862
-0.86847436 0.29585615 -1.0392554 -1.0521317 -0.51886576 -0.8009531 -0.6729167 -0.7525062
-0.12636243 0.1989366 0.055348698 0.14897454 -0.59183675 0.08525775 0.39765686 -1.0639328
-0.79048926 0.2536548 0.50921196 0.07925897 0.33016562 -0.1808392 0.5162614 0.44013715

l2.weight f4 [300, 400]
00000000: 4651 42bd e712 50bd 44ec 53bc df93 c7bb
00000010: b832 c6bb f973 3dbd 12a5 963c 4d04 42bc
00000020: 6ce2 1abc 9a46 23bd f071 54bd 4d55 2dbc
00000030: 035e 73bc d823 403b 6d0e b93c b257 e1bc
00000040: f1c6 fb3c a723 f13c 2803 333d 3771 b33c
00000050: cec5 b0bb 4a5f 8cbc 5aa9 203c f43b 59bc
00000060: dcb1 02bd cffb 7dbc 13dc 0e3c be83 d0bc
00000070: 2b4f e139 457b 36bc 38c5 2ebd 7401 983c
00000080: fceb 193d 4397 4bbd 2455 e23c 72ce 3abd
00000090: b67a 813c 9b1a 43bd 2af8 7d3b 9f77 93bc
000000a0: a2b6 0fbd a543 41bd d4b3 48bd 6cbf 183d
000000b0: d92b 51bc 23dd cfbc d5e8 283d 73f7 d23c
000000c0: 92fb 4f3b ae20 633c 6ac9 97bc 1bce b23c
000000d0: 1cd1 e03b b867 04bd b66d 7ebc e0f7 ac3a
000000e0: eaf9 10bd eaaa cebc 8cf0 1ebc e905 f3bc
000000f0: 2bcd bc3c 1a64 1ebd cacf fe3c cab7 68bc
00000100: feb2 63bc d825 243d 07f5 febc 3c36 0cbd
00000110: 937b 41bd f5c7 4dbb 7c89 b2bc 268e b6bb
00000120: 81ee 193d 5a5c eebc 0e74 dd3b 5a72 3cbd
00000130: 485a 61bd 9317 3abd 0c00 1a3d 862d 19bd
00000140: c577 1d3c 54d7 0c3a 331c 353c 2d53 07bd
00000150: f958 61bd 46d4 49bd 8df7 5a3c 7dc3 bdbc
00000160: 72df 26bc f536 ddbc ee4a 243d b74d b43c
00000170: 5689 0fbc a21d 33bd 1d55 f3bb 7c6f 20bd
00000180: 009c 52bd 5812 8fbc 8916 a5bc ec77 debc
00000190: c5d1 453c f190 043c 7a50 07bd e3ac 183b
000001a0: ca34 e3bc 82c4 1f3d c157 dc3c e07a 83bc
000001b0: 40fe ec3c e308 a33b 6c74 c6bb 38f2 e03c
000001c0: 7da9 113c 9f76 dcbc eebd da3c adad b5bc
000001d0: 6f81 08bc 9563 91bc 614f 86bc d97d afbc
000001e0: eb3b 37bd 6214 93bc 22b5 93bc 9181 20bc
000001f0: 178c df3a c6f5 f63c 397e 503c dc36 3f3c
00000200: e37d 29bd ace8 3dbc 34c5 15bd df76 bdbb
00000210: 4dce 81bc 3c73 28bd 93ae 9ebb c31f e93c
00000220: 6784 e53c f893 f53c 8ebe 31bc b363 de3c
00000230: 9a92 cd3c 89a3 64bd 9579 a9bc c7fc 48bd
00000240: 26b7 283d da93 07bd 00b9 503c 6d37 e43c
00000250: b867 02bc eac3 6a3c d84a 28bd 6b44 183a
00000260: b9ef 253c 21e5 c83b 6152 c4bc 7a69 41bc
00000270: e04b 5ebb bf32 b63c 1312 5fbd 60f3 d93c
00000280: fe23 cf3c 1e2f 233d 9fd5 45bc c30a 2e3c
00000290: 9c96 26bd a7ef 65bd eb05 3ebd b8a6 f2bc
000002a0: 34c0 e73c 6d8d fcbc 847d be3c b817 34bd
000002b0: ae23 183d ea82 1cbd 69ca ddbc 7155 ebbc
000002c0: 4033 3f3c 76d0 d03c a315 85bc 302f 813c
000002d0: 7735 87bb 2aff 72bb 3a27 993b 6e1e 36bd
000002e0: 7141 fdbc a541 493d bb36 4b3d 2b50 293b
000002f0: e40a 163d 63ca 69bc 012b 47bd b616 60bd
00000300: 8561 cc3c 9ce1 0f3c c74b c3bc 13e4 09bd
00000310: aadf 733c 7f16 803c 6588 cd3c fae9 ed3b
00000320: d5ed ce3c e349 3ebd ef3c 03bc d083 8ebc
00000330: 1f00 03bd 6d33 d1bc 1d09 f7bc 9ae2 ae3c
00000340: ca0c 2ebd 35a0 7c3c bc73 6b3c a3b8 2d3c
00000350: 3ed1 86bc db7a 5cbd 2ff5 003d ff63 d3bb
00000360: e136 953c 961e d5bc 3c9a d0bc b3a4 d93b
00000370: b0ac 2c3d 28ba 11bc 43f4 a93c 48e6 59bd
00000380: 4af4 91bc dfb3 293d 571a 3e3c 4004 c1bc
00000390: 124b 3abd 6f00 a6bc f770 0dbc 3f22 aa3c
000003a0: c00d a8bc 956c b53c 476d 1ebd 054c a43b
000003b0: d5f5 4abb 3aef 47bd d2ef 04bd 50b8 13bd
000003c0: 38cd 81bc 8de0 f33c 4b18 6cbd 6543 a0bb
000003d0: ae65 0f3d ed9c e03c e59b 1fbd d88f bbbc
000003e0: 4898 413c ae35 8bbc a7f1 6f3c 88de ba3b
000003f0: dfdc 9a3c 9266 d5bc 5839 0ebd b62f ca3c
-0.04744079 -0.050799277 -0.012934748 -0.0060906257 -0.0060485266 -0.04625318 0.018389259 -0.011841846
-0.009453397 -0.039862253 -0.05186647 -0.010579419 -0.014853957 0.002931824 0.022589887 -0.027507637
0.030734511 0.029435946 0.043704182 0.021904571 -0.005394674 -0.017135281 0.009806002 -0.013258923
-0.0319079 -0.01550193 0.008719462 -0.025453445 0.0004297433 -0.011137788 -0.04266855 0.01855538
0.037578568 -0.0497048 0.027628489 -0.045607038 0.015805583 -0.047632795 0.0038752654 -0.018001376
-0.03508628 -0.04718365 -0.048999622 0.03729193 -0.012766802 -0.025374 0.04123767 0.025752759
0.003173564 0.013862772 -0.018528659 0.021826794 0.0068608653 -0.032325476 -0.015529087 0.0013196431
-0.035394587 -0.025227983 -0.0097009055 -0.029665904 0.02304705 -0.038669683 0.03110494 -0.014203975
-0.0138976555 0.040075153 -0.031122698 -0.03423141 -0.04723699 -0.0031399701 -0.021794073 -0.0055711446
0.03758097 -0.029096771 0.0067582196 -0.04600749 -0.05501774 -0.04543264 0.0375977 -0.03739693
0.009611075 0.00053726626 0.0110540865 -0.033038307 -0.05501649 -0.049274705 0.013364685 -0.023164505
-0.010185109 -0.027003745 0.04011052 0.022009714 -0.008760771 -0.043729432 -0.007425918 -0.03916882
-0.051418304 -0.017464802 -0.020152347 -0.027156793 0.012073939 0.008091197 -0.033035733 0.0023296408
-0.027735133 0.039005764 0.026897313 -0.016049802 0.02892983 0.0049754246 -0.006056359 0.027459249
0.008890507 -0.026912032 0.026701894 -0.022177542 -0.008331641 -0.01774768 -0.016395273 -0.021422314
-0.044734877 -0.017954055 -0.018030707 -0.009796516 0.00170553 0.03014649 0.012725406 0.011670794
-0.04137982 -0.011591118 -0.03656502 -0.005781993 -0.015845442 -0.04112552 -0.004842588 0.028457528
0.028017236 0.029977784 -0.010848654 0.02714715 0.02509432 -0.05582002 -0.020687858 -0.049069192
0.04119029 -0.033099987 0.01273942 0.02785846 -0.007959299 0.014328936 -0.041087 0.0005808535
0.010127955 0.00613083 -0.023965063 -0.011804933 -0.0033919737 0.022240994 -0.054460596 0.026605308
0.025285717 0.039839856 -0.012074857 0.010622683 -0.040670976 -0.056136753 -0.046392363 -0.029620513
0.028289892 -0.030829156 0.02325321 -0.043967932 0.0371434 -0.038210787 -0.027074056 -0.028727265
0.011669934 0.025490027 -0.016245669 0.015769571 -0.0041262466 -0.003707836 0.0046738656 -0.044462614
-0.030914994 0.04913487 0.049612742 0.0025835137 0.03663148 -0.014269444 -0.048624996 -0.05470916
0.024948845 0.008781817 -0.023839844 -0.033664774 0.014884869 0.015635727 0.025089452 0.007260558
0.025259892 -0.046457183 -0.008010133 -0.017396837 -0.031982537 -0.025537217 -0.030155713 0.021348286
-0.042492665 0.015419056 0.014370855 0.010603103 -0.016457196 -0.0538281 0.031483825 -0.0064511294
0.018214645 -0.026015561 -0.02546417 0.006641948 0.042156875 -0.008894481 0.020746356 -0.05319813
-0.017816681 0.041431304 0.01160296 -0.023561597 -0.04548175 -0.020263879 -0.00863289 0.020768283
-0.020514369 0.022146503 -0.038678434 0.005013945 -0.0030969281 -0.04881213 -0.032455273 -0.036064446
-0.015844926 0.02977016 -0.057640355 -0.0048908466 0.03500908 0.027418578 -0.038967032 -0.022895738
0.011816092 -0.01699337 0.014645017 0.0057027973 0.018904148 -0.026049886 -0.034722656 0.024680953

l2.bias f4 [300]
00000000: 18d4 5fbd d594 983c 5ab9 023d b5e3 b53c
00000010: d608 7ebb f97e 053d 5e0b d73c 9fbd 353d
00000020: 2aac 39bc f255 963c 2bfc 703d a058 24bd
00000030: 062a b8bc 4d2d 4a3e 4649 d33d 85a7 e1ba
00000040: b6fb 2b3d 2dde 1c3d 548b 193d a455 d43c
00000050: 9009 88bc ed84 fc3c 940a fa3c b07c db3c
00000060: c304 16bb 696f 2cbd df3d 893d 88ad 363d
00000070: cf55 103b 75df 06bd 263b d03c 00db 043d
00000080: c15b e2bc 3cb7 9dbc 46a3 c73c eb4f 79bb
00000090: 04f3 3e3d b516 f3bc 8c71 013d d52f 253e
000000a0: cb27 443d 4dca 163e 5710 e9bb 0535 073e
000000b0: 0f6f 243d 5f4e a23c ed4e 00bd a205 b1bc
000000c0: 89dd 213e 742f 633d 97d2 d63d 281f fe3c
000000d0: c741 073e e7fe 133d 60e7 61bd a66c a53d
000000e0: fd03 67bd 8819 733d 5ff9 4cbd e72b 74bb
000000f0: 4f50 1ebd daad 993d 3653 cebb 0f50 193e
00000100: 6edd c1bc 23c4 4b3d 6d70 613a 6b20 8d3e
00000110: 0d23 3a3d 1d1d bd3d 3e4f 4b3c 6b41 b7bc
00000120: f1f2 d93d d1a7 1f3d f886 f33c 1df8 13bd
00000130: a4ae 9a3b 07cc 5c3d f1f3 b2bc e2f8 a3bc
00000140: 06fb 95bc 540b 26bc 0926 fcbb 3d65 c03c
00000150: fc76 f8bc dece a5bc aca8 e53d 1ec2 033e
00000160: 2aac 393e ce82 24bb 1209 c03d f0ec 2cbd
00000170: 30f4 723d e76a 843d 1604 683d 24a3 5e3d
00000180: 9f86 b23c 0b80 233d 4157 313b 7f51 7d3d
00000190: 4091 0a3e a42a 0e3d 9853 07bd 0ccf 363e
000001a0: 2346 193e 2cd6 a73d d261 bb3d 24c9 4cbd
000001b0: 6b3e 863d a7ba b0bb a210 bf3d 868f 68bd
000001c0: 1bc1 d7bb b6e4 3d3d 5559 e53c 6185 63bd
000001d0: edfc 8fbb ce34 d1bc 83b6 583d bf4e 9dbc
000001e0: 9df3 99bb c4fa 883a f5e8 4fbd a664 8fbc
000001f0: 3215 12bd 4af5 49bd ab96 d23c 10c3 c23d
00000200: 22d0 07bd 8b3c 8bbb 2dbb 003a 4de9 c43c
00000210: aba2 d8bb 89c5 0fbd 369c 3e3c d21c 583d
00000220: 881c 2ebd ab4e eb3c 08c0 203d 45a7 8c3d
00000230: f84e 893d 3f89 b33c ae65 2bbd 4d4c 27bc
00000240: c7b6 78bc aa3f 153c 6993 fa3d b849 033e
00000250: 61cf bebc bdc3 5fbd 16d4 32bc 628e 943c
00000260: 6475 203d 2262 d63b 3b99 7b3e 757f b83d
00000270: 119c 38bb 4c88 ba3c 0419 63bd 531f f0bc
00000280: ca51 33bc 8cb9 4d3d 7036 50bd d38d 283c
00000290: 8471 f13c c4e6 263d 7fc9 12bd d94a 8c3b
000002a0: 448a 04bd a039 d6bc 7e16 b53d f6c4 543c
000002b0: 8391 6a3e 2751 853c 261f 4ebc 85e1 c33c
000002c0: 4bff 55bd f25d fcba 7a5c fe3b 04bc 1b3e
000002d0: 3a8b 28bd 3f6d 9a3d 8a7b 2b3d c2e2 c33d
000002e0: fb8b f93d c5f1 053d 336d fb3d ea95 e4bc
000002f0: 9667 143e e9ab 343d f395 2a3d 17a1 f83c
00000300: 2c60 4cbb 4156 c2bc 6b2c b2bc f75c 2f3e
00000310: 1b88 e03d 08e7 37bd b4ad 45bc 4a1f d93b
00000320: f962 16bd 0874 803e cdbd a43d eab5 563e
00000330: d19a 3b3c 8150 ee3b 1ee1 013d d09d b33c
00000340: 6c8b f5bb 3829 b33e 00cf 223d 6010 6fbd
00000350: 5aef 373b 81a2 1c3c 9b7b d03d 32c9 58bb
00000360: c0de 7d3e 50b7 97bc 074e 0c3e 653b 323e
00000370: 7d13 04bc 08bd 343d b262 9d3d f19e 163d
00000380: 0d19 513d 4170 843d c9a6 343e ef09 b13d
00000390: ebdd a8bb 05ac 7a3d a04f 84bc e043 34bd
000003a0: a700 483c 2524 393d c1a8 bcbc afc1 48bc
000003b0: 21c0 a63c 4957 51bd b8a7 adbc 92f5 433d
000003c0: 6075 123d ec88 ebbb 8743 923c d56d 3bbb
000003d0: 439b f33d b853 ff3c 2ad8 c93c 4f3e d6bc
000003e0: 1d69 c43d bc6c e83d d94d b33d 05e5 8f3c
000003f0: b84a e3bb 2786 52bd e93c 113d 76d7 163c
-0.054645628 0.018625656 0.031915046 0.022203306 -0.003876259 0.032591794 0.026250537 0.04437029
-0.011332551 0.018351529 0.058834236 -0.040123582 -0.022480976 0.19743843 0.1031671 -0.0017216062
0.041988097 0.03829782 0.03748639 0.025919743 -0.016606122 0.030825103 0.030522622 0.026792854
-0.0022891022 -0.042098437 0.06701254 0.044599086 0.0022023802 -0.03292795 0.02541883 0.032435417
-0.027631642 -0.019252412 0.024369847 -0.003804202 0.046618477 -0.029673913 0.031602427 0.16131528
0.047889512 0.14725609 -0.0071125436 0.13203819 0.040144976 0.01981276 -0.03132527 -0.021609131
0.15807165 0.055465177 0.104893856 0.031020716 0.13208686 0.036131766 -0.055152297 0.08077364
-0.056400288 0.05935052 -0.050042506 -0.0037257613 -0.038650807 0.07503863 -0.0062965406 0.14971946
-0.023665156 0.049747597 0.00085998216 0.27563795 0.045443583 0.092340685 0.0124090295 -0.02237006
0.106420405 0.0389784 0.029727444 -0.03612529 0.004720526 0.053905513 -0.021844836 -0.020016138
-0.018308174 -0.010134537 -0.007694964 0.023485774 -0.030330174 -0.020240244 0.11213812 0.12867019
0.18132082 -0.002510238 0.0937673 -0.04221815 0.059314907 0.064657025 0.05664452 0.0543548
0.021792708 0.039917033 0.0027060064 0.0618453 0.13531971 0.034708634 -0.033038706 0.1785242
0.14968161 0.08195147 0.09149517 -0.04999651 0.06554874 -0.0053933444 0.09329344 -0.0567775
-0.0065842993 0.046360694 0.027996698 -0.055547122 -0.004394165 -0.025537875 0.05290843 -0.019202588
-0.0046982304 0.001045071 -0.050759275 -0.017504048 -0.035664745 -0.04930619 0.02570661 0.095098615
-0.033157475 -0.0042491606 0.0004910704 0.024037028 -0.0066111884 -0.035100494 0.011633923 0.05276186
-0.04250768 0.028724035 0.039245635 0.06867842 0.06704515 0.02191603 -0.041845016 -0.010211063
-0.015180296 0.009109417 0.122351475 0.1282109 -0.023292245 -0.05463003 -0.010914823 0.0181343
0.039174452 0.00654246 0.24570172 0.090086855 -0.0028169195 0.02277007 -0.05544378 -0.029311812
-0.010944793 0.05022578 -0.050833166 0.01028772 0.029473074 0.04074742 -0.035836693 0.0042813835
-0.032358423 -0.026150525 0.08842181 0.012986412 0.22907071 0.016274048 -0.012580669 0.023911247
-0.05224542 -0.0019254072 0.007762489 0.15208441 -0.0411484 0.07540368 0.041865863 0.09564735
0.12184902 0.032701273 0.122766875 -0.027903516 0.1449264 0.04410926 0.04164691 0.030350251
-0.0031185253 -0.02372277 -0.021749696 0.17125307 0.1096346 -0.044898063 -0.01206534 0.0066260444
-0.03671548 0.25088525 0.08044014 0.20967832 0.011450485 0.0072727804 0.03170883 0.021925837
-0.007493427 0.34992385 0.03974819 -0.058365226 0.0028066249 0.009560228 0.10179826 -0.0033078906
0.24792004 -0.018520027 0.1370164 0.1740547 -0.008061287 0.044125587 0.0768484 0.036772672
0.05104928 0.06466723 0.17641748 0.08644473 -0.005153408 0.061199207 -0.01615125 -0.044010043
0.012207187 0.045200486 -0.023029687 -0.012253209 0.020355286 -0.051108632 -0.021198139 0.047841616
0.03575647 -0.007187953 0.017854465 -0.00285994 0.11894848 0.03116785 0.024639208 -0.026152758
0.09590361 0.113488644 0.08755083 0.01756526 -0.0069363974 -0.05139747 0.03545848 0.009206643

l3.weight f4 [1, 300]
00000000: a53f 413d ce23 353d 707c 503a 5f7e 093c
00000010: 2f3d 01bf 13aa 2a3d 1c55 b23c 0d29 5bbf
00000020: 4b6f 213c ec24 3f3d 6b30 9bbf 6887 463d
00000030: 4ff9 b2bf 0655 33bf 6501 4cbf fc2d df3c
00000040: 3aa6 9fbf 0716 36bb 8dd7 a33c ba63 473c
00000050: f56f 07ba d4f5 5f3c 65e1 c1bd b536 713b
00000060: bfcb 053b 7dc4 f43c dc5f 44be 23ef 37c0
00000070: 20cc eaba bf1b 5ebf 7891 893b 507c 433d
00000080: 91de 323c abcd 07bb f70b 143d 3b2c b8bc
00000090: b5fc 7dbf 490f 273c 3dfa 243d 41e0 70be
000000a0: ff63 6fbf ec4e 33be 7dc6 823b a3e8 5bbe
000000b0: 4b53 213d 2fbf 3f3d c4cc f73b 5c28 6b3b
000000c0: 1109 74bf 617a d3bd f59f 37bf 2266 623c
000000d0: 06d0 35bf 1bba 713c 8105 503d 0fde 9ebf
000000e0: 8dc7 e83c 309a 9fbf b065 253c 7cac 393d
000000f0: f577 df3b 140b 78bf 0b31 09bf f232 ccbd
00000100: 99e0 033d 3a26 97bf 83d5 1ebf 05fb 6abe
00000110: 7860 01bf 5b7a 37bf 5dd7 a23c e4cb 263c
00000120: 0586 28be 7caa 1c3d 2d19 41bf 3299 4a3d
00000130: bcf2 cfbe 7012 96bf a416 1d3d 9037 4f3b
00000140: be16 5cba 3b2b e0be b956 2b3d c276 1e3c
00000150: 92dc 97bb 9b59 a53c 15ca 91bf 1269 82be
00000160: 6609 8dbe 995a e8bf 3920 d3bd 6a11 e33c
00000170: e432 b4be 0db9 96bf ab0d bbbf 8b61 9abf
00000180: e7ef 023d 11e2 903b e2e6 583c 4dd4 1ebf
00000190: 4e7f f1be ed21 e8bf 9519 1c3d 7088 a8be
000001a0: 6e7a f9bd b469 b4bf e554 99be 4435 533d
000001b0: 97ae 70bf b7d2 bcbe 04af f4bf e5a0 973c
000001c0: 4080 153c 18c4 54bf f2ec c33c 3b72 c43b
000001d0: c2f3 5f3c 68ca 9d3c a5ec e7be f853 383c
000001e0: 823e dd3b bf85 febe 8cf4 443c f054 e23a
000001f0: 2dde 393c c728 2dbb 3349 3b3d 9afc 7ebf
00000200: c722 d23c cdf2 f03c 4db0 8bbf 08d1 013d
00000210: 7d41 35bf 4e5b 133d 51fb bfbb 6363 29bf
00000220: 680c 0a3d 48c2 293d 4937 a0bf 5e3a 93bf
00000230: b371 cebf f15b 2b3d af14 3b3d 5f41 9f3c
00000240: 35c9 ff3c e9ed 963c 4a8b 4abe c145 99be
00000250: c0a3 0b3c 32ea 3d3c 3d17 f53c 16dc 0ebf
00000260: f8fc 6c3b a8a0 eebe 6a03 21be 8f0e 6ebf
00000270: ed0f 4b3d 18bb 733c 7f0b 313d c65e 84bb
00000280: 817f e43c 11b4 f9bf a1e8 ac3c fb47 d83c
00000290: 901a 07c0 c7a2 2dbf bf2a 643b 4e43 cd3c
000002a0: 3a55 a83c 9575 f3bc 3610 8ebf e330 62bf
000002b0: e62b 89be c515 503d aaa9 463d 867e 9f3c
000002c0: 69cc 7e3b 704d da3c 7c90 0dbf c3ee 8cbe
000002d0: dac9 f23a e97d 22bf eeac 1dbf c4f5 2dc0
000002e0: 344f 68be a9b5 373c c67e febf 87e3 503c
000002f0: 31a3 91be a728 adbf 8278 70bf 48d6 353d
00000300: 8a19 87bf 3ac2 1b3d 0d38 2f3d 64b2 a0bd
00000310: 3ece bbbd b817 693c 0c02 313c 9a28 fb3b
00000320: 3d6f a23c db75 40be 6d5a 8fbe 9844 9abf
00000330: 323c 98bf b5fb 143b 1783 0fbf 09d9 b53c
00000340: e5a1 f93c 67f8 9740 0719 b1bf b7d8 99bb
00000350: 2084 3a3d 8ace 5f3c bda6 46be c336 1abf
00000360: 4c1b ccbe 3b73 243d 4384 2bbe 11a7 fcbe
00000370: 7b69 f13c 4ec3 63bf 6ee2 6bbf aade 3d3d
00000380: 6aca 6abf db70 37bf a62a f3bd 2e6a b6bf
00000390: b2f4 29bb 9f1d 09bf 23a6 e33c 6b18 e13b
000003a0: 2641 053d 68ba 75bf c91f 58c0 59ad 7e3c
000003b0: bed8 923b 7cad fe3c 20ab cb3b 173b 65bf
000003c0: 7d66 05bb ed0c 73bf b86b 0b3d 8165 24bf
000003d0: 4d23 81be de59 ea3b 5291 9e3c 6011 ee3c
000003e0: 0fe5 c6bf a21f 82be b74a a5bf e700 b53b
000003f0: 4cc7 713c 3639 c93c b4b2 0a3b ab5d 04c0
0.047179837 0.0442236 0.0007953113 0.008391946 -0.50483984 0.0416661 0.021769099 -0.85609514
0.0098531945 0.04666607 -1.2124151 0.048468977 -1.3982333 -0.7005161 -0.7968963 0.027243607
-1.2472603 -0.0027784125 0.020000244 0.012169773 -0.0005166524 0.01366945 -0.09466819 0.003680629
0.0020415632 0.02987885 -0.19177192 -2.8739707 -0.0017913617 -0.8676109 0.0041982494 0.047725976
0.010917322 -0.0020721953 0.036144223 -0.022482028 -0.99213725 0.010196515 0.04027771 -0.23523046
-0.93511957 -0.17510575 0.003990947 -0.21475463 0.039386075 0.046813186 0.0075622518 0.003588221
-0.95326334 -0.10326076 -0.7172845 0.013818296 -0.71020544 0.014753844 0.0507865 -1.2411517
0.028415466 -1.2468929 0.010095045 0.04533051 0.00681972 -0.96891904 -0.5359046 -0.099706545
0.032196615 -1.1808541 -0.62044543 -0.22947319 -0.50537825 -0.71671075 0.019878084 0.010180447
-0.16457374 0.038248524 -0.7542904 0.049462505 -0.4061488 -1.1724377 0.03835167 0.0031618811
-0.0008395723 -0.43782982 0.041830752 0.009671869 -0.0046344483 0.020184329 -1.1389796 -0.25470787
-0.27546233 -1.8152648 -0.1030888 0.027718265 -0.35195076 -1.1775223 -1.4613546 -1.2061018
0.03196707 0.0044214805 0.0132386405 -0.62042695 -0.47167438 -1.8135353 0.038110334 -0.32916594
-0.12181555 -1.4094758 -0.29947582 0.05156447 -0.940164 -0.36879513 -1.911591 0.018509338
0.009124815 -0.83111715 0.023916695 0.0059950626 0.013668956 0.019261554 -0.45297733 0.011250488
0.0067518363 -0.49711415 0.012021195 0.0017267745 0.011344475 -0.002642201 0.045724105 -0.9960419
0.025651349 0.029412651 -1.0913178 0.03169349 -0.7080305 0.035975747 -0.0058588167 -0.6616728
0.033703238 0.041445047 -1.2516872 -1.1502187 -1.6128448 0.04183573 0.045674022 0.019440351
0.031223873 0.018423991 -0.19779697 -0.2993603 0.008522928 0.011591481 0.029918307 -0.55804574
0.0036161523 -0.46606946 -0.15723959 -0.92990965 0.049575735 0.01487615 0.043223854 -0.004039618
0.02789283 -1.9508077 0.02110702 0.02640151 -2.1109962 -0.67826504 0.0034815518 0.025056507
0.020548452 -0.029719153 -1.1098697 -0.88355845 -0.26791304 0.05080201 0.048501648 0.01946951
0.0038879162 0.026648253 -0.5529859 -0.2752591 0.0018523291 -0.63473374 -0.61591995 -2.7181253
-0.22686464 0.011212745 -1.9882438 0.012749559 -0.28444818 -1.3528031 -0.9393388 0.044393808
-1.0554669 0.038027026 0.042778064 -0.07846525 -0.09170197 0.014226846 0.010803711 0.007664752
0.019828433 -0.18794958 -0.27998677 -1.2052183 -1.189337 0.0022733037 -0.560594 0.022198217
0.030472705 4.7490726 -1.3835763 -0.004695024 0.04553616 0.013660083 -0.19399543 -0.6023981
-0.39864576 0.040148955 -0.16749673 -0.49346212 0.029469242 -0.88969886 -0.9214238 0.046354927
-0.9171511 -0.7165658 -0.11873369 -1.4251153 -0.0025933203 -0.53560823 0.027789181 0.006869366
0.032532834 -0.9598756 -3.37694 0.015544259 0.004481404 0.031088583 0.006215468 -0.8954329
-0.0020355277 -0.949416 0.034038275 -0.6421738 -0.25222245 0.0071518263 0.019356403 0.02906102
-1.5538653 -0.2541476 -1.2913426 0.005523789 0.014756989 0.024563413 0.0021163644 -2.068217
