model/PV1_actor100.pth (torch, 491793 bytes, 5 tensors)

l1.weight f4 [400, 3]
-0.003144891 -0.086530335 -0.27732542 -0.70933664 0.06043812 0.09540836 -0.14568669 0.626883
0.036590084 0.73078406 -0.30709887 -0.22528079 -0.6057066 -1.2083955 -0.17048605 0.5832442
0.6800524 0.37068686 -0.5419105 0.3523137 0.28256747 0.44870174 0.3750543 0.116963305
-0.2596135 0.9094958 0.14076789 -0.8653677 -0.2253697 0.10872769 -0.2536974 -0.11800733
-0.06912465 -0.4232499 -1.4223763 -0.26077384 -0.450578 0.954731 0.19026572 0.96438795
-0.1521922 -0.3781698 0.8441351 -0.9291973 -0.3557522 0.08791358 1.1457882 0.22716255
-0.16917954 0.8176052 0.19537733 0.8982958 0.39810976 -0.08836932 0.7553349 -0.5926752
0.34982055 -0.31155202 -1.4477941 -0.15026402 0.4970089 0.50159085 -0.20633228 0.6079515
0.4488531 -0.11211139 0.5142641 0.6373701 0.32983005 0.92423093 -0.880661 0.009541623
0.8753048 1.0765587 0.37773943 0.8146623 0.2062822 -0.25894988 1.1828113 -0.74388105
-0.45886964 0.7447024 0.5559572 -0.3242157 0.06495678 -0.7267496 -0.13058424 -0.47883576
-0.8709074 -0.059942022 0.23596805 0.88517654 0.25471002 0.19331075 -1.2941777 -0.15356015
0.62964374 -0.09190145 -0.44282034 -0.4187565 1.1898205 0.20804144 -0.0039914995 -0.91895396
-0.46275252 0.8261755 -0.8660178 -0.351274 -0.0033523242 -0.536063 -0.2693462 0.018939704
0.0076719355 -0.0039691543 0.91837895 -0.48803768 0.17900957 0.83398885 0.21788064 0.31664273
0.93283844 -0.16614738 -0.26309046 0.53301346 -1.4857905 -0.2660016 0.020306455 -1.2081393
-0.16728808 -0.6962946 0.79256904 0.05413001 -0.5385544 0.8563831 0.058643173 -0.05935175
0.016045842 -0.049807373 0.7582645 0.8990972 0.5418475 0.63047224 0.5390115 -0.28547573
-0.77172005 0.059990235 0.108580895 0.15973748 -1.146714 -0.079748675 -0.48417944 -0.76239467
-0.043273855 0.3475199 -0.08030299 -0.18968013 0.9493184 -0.59149784 0.053375397 -0.71273184
-0.1331066 0.14790305 -0.53395104 -0.7681598 -0.033062205 0.33704525 -0.50898117 0.13182753
-0.78586274 0.70557994 0.2861805 0.6457528 0.81623393 0.023159696 -0.8979419 0.60344005
0.08020038 -0.3745403 0.33992767 -0.1591914 0.47912282 0.79851174 0.4280079 0.62937844
0.81120646 0.28254133 0.07244362 -1.2113802 -0.28247604 1.0537065 1.0023001 0.33530307
-0.4909416 -0.56612813 -0.143892 -0.32363534 -0.37366867 -0.017270902 -0.68845224 0.20408633
0.016662681 0.33028296 -1.1287423 -0.35681102 -0.23777212 0.19702137 -0.02368147 0.698414
0.17995867 0.03331989 -0.16311128 0.48345003 0.1898864 -0.3811444 0.13729171 0.036979824
-0.85988164 0.055910364 0.2477818 -0.58097005 1.0138202 0.07337383 0.53220636 -0.4262362
-0.34680524 0.58646697 -0.8642612 -0.290564 -0.16140887 -0.15710343 0.010620197 0.91775423
0.42403546 0.35719928 0.65152544 -0.6770544 0.23850301 -0.2558958 -0.28149718 -0.038557895
0.6206543 0.69066775 -0.32535565 0.44496667 -0.055498276 -0.3213451 0.9737287 -0.7346218
0.124771945 0.2837794 -0.9157236 0.14290701 0.48367336 -0.521393 -0.2616534 0.103563875
00000000: 841a 4ebb d136 b1bd 99fd 8dbe 1697 35bf
00000010: f68d 773d 7565 c33d e42e 15be 677b 203f
00000020: 7cdf 153d aa14 3b3f 103c 9dbe 02b0 66be
00000030: 960f 1bbf b4ac 9abf e593 2ebe 7e4f 153f
00000040: ea17 2e3f abca bd3e a6ba 0abf 7662 b43e
00000050: afac 903e 3cbc e53e 1e07 c03e 758a ef3d
00000060: 10ec 84be b7d4 683f 7525 103e bd88 5dbf
00000070: 51c7 66be a0ac de3d a0e4 81be d4ad f1bd
00000080: 3991 8dbd 36b4 d8be 6d10 b6bf 2684 85be
00000090: 29b2 e6be 4069 743f 04d5 423e 21e2 763f
000000a0: 46d8 1bbe 799f c1be 3d19 583f e0df 6dbf
000000b0: 2725 b6be 090c b43d 30a9 923f 4d9d 683e
000000c0: 673d 2dbe 934e 513f ff10 483e b7f6 653f
000000d0: 0bd5 cb3e f9fa b4bd a15d 413f 90b9 17bf
000000e0: ae1b b33e bf83 9fbe 5151 b9bf d0de 19be
000000f0: f377 fe3e 4268 003f c548 53be b6a2 1b3f
00000100: 13d0 e53e a89a e5bd d0a6 033f b02a 233f
00000110: 7cdf a83e 669a 6c3f 0073 61bf 7854 1c3c
00000120: fa13 603f adcc 893f 1067 c13e b58d 503f
00000130: a43b 533e 1495 84be 5c66 973f fd6e 3ebf
00000140: f6f0 eabe d1a4 3e3f 3653 0e3f 9aff a5be
00000150: 0f08 853d 430c 3abf e0b7 05be f629 f5be
00000160: caf3 5ebf c485 75bd 9ca1 713e ee9a 623f
00000170: 5a69 823e 41f3 453e 9da7 a5bf df3e 1dbe
00000180: 5530 213f d436 bcbd 59b9 e2be 4167 d6be
00000190: 0a4c 983f d108 553e 20cb 82bb 9140 6bbf
000001a0: e6ed ecbe 3d80 533f 58b3 5dbf 30da b3be
000001b0: abb2 5bbb 6d3b 09bf bfe7 89be 7027 9b3c
000001c0: dc64 fb3b ae0f 82bb e21a 6b3f 13e0 f9be
000001d0: 494e 373e 4b80 553f 1a1c 5f3e ff1e a23e
000001e0: 80ce 6e3f 8a22 2abe cbb3 86be 9273 083f
000001f0: 622e bebf 5d31 88be b959 a63c 4fa4 9abf
00000200: 914d 2bbe 5d40 32bf cee5 4a3f 6eb7 5d3d
00000210: b3de 09bf ec3b 5b3f d333 703d d21a 73bd
00000220: 9272 833c d102 4cbd 9f1d 423f 3c2b 663f
00000230: 85b6 0a3f a166 213f a8fc 093f e029 92be
00000240: 728f 45bf 52b8 753d a95f de3d 3992 233e
00000250: 86c7 92bf 4653 a3bd 5ee6 f7be 4c2c 43bf
00000260: ed3f 31bd 21ee b13e e575 a4bd 823b 42be
00000270: 8806 733f 676c 17bf 29a0 5a3d 9875 36bf
00000280: 194d 08be e673 173e 04b1 08bf 1fa6 44bf
00000290: 3c6c 07bd 3291 ac3e 974c 02bf ccfd 063e
000002a0: 4d2e 49bf e3a0 343f 4086 923e 0e50 253f
000002b0: b5f4 503f 67b9 bd3c 85df 65bf 0c7b 1a3f
000002c0: 1940 a43d bfc3 bfbe 000b ae3e 1203 23be
000002d0: 964f f53e 446b 4c3f da23 db3e f21e 213f
000002e0: 3aab 4f3f 42a9 903e 525d 943d 820e 9bbf
000002f0: b3a0 90be dbdf 863f 5f4b 803f d8ac ab3e
00000300: b35c fbbe c6ed 10bf 6d58 13be 88b3 a5be
00000310: 8051 bfbe b57b 8dbc 683e 30bf 02fc 503e
00000320: 2d80 883c d91a a93e a17a 90bf efaf b6be
00000330: 897a 73be f8bf 493e a4ff c1bc 43cb 323f
00000340: 1647 383e 707a 083d a506 27be c386 f73e
00000350: 9571 423e 5c25 c3be 3396 0c3e 2878 173d
00000360: 3421 5cbf 4402 653d 83ba 7d3e 74ba 14bf
00000370: dcc4 813f 0545 963d ad3e 083f a23b dabe
00000380: 7590 b1be b322 163f 3940 5dbf cec4 94be
00000390: 5e48 25be b9df 20be 5600 2e3c f1f1 6a3f
000003a0: 2d1b d93e d3e2 b63e 5fca 263f 7053 2dbf
000003b0: 223a 743e c604 83be 6620 90be e2ee 1dbd
000003c0: 33e3 1e3f 9acf 303f 0495 a6be acd2 e33e
000003d0: 2952 63bd 5887 a4be 4946 793f 2d10 3cbf
000003e0: 6f88 ff3d 894b 913e dd6c 6abf 3756 123e
000003f0: 09a4 f73e 037a 05bf 6ff7 85be 4c19 d43d

l1.bias f4 [400]
0.06789753 0.51772386 0.3822705 -0.72216064 -0.359197 -0.3384911 -0.4216597 0.028457494
-0.1375494 -0.24684839 -0.40029162 -0.2399501 0.35236168 -0.9794386 -0.76974386 -0.74782515
-0.01616061 0.08389696 -0.69119203 -0.028460924 -0.017814178 -0.13605632 -0.3258789 -0.16417941
-0.24399386 -0.20496309 -0.766141 -0.36985618 0.13248079 -0.2713746 0.30753395 0.3789308
-0.608069 -0.16535863 0.031558007 -0.79147625 -0.005467575 -0.06994395 -0.09836115 -0.70362025
-1.0524024 0.006427674 0.1817652 -0.48932958 -0.33176196 -0.5282631 -0.45100924 -0.54876095
0.5563128 -0.37213442 0.17075379 -0.44936085 0.02028727 -0.18860027 0.2097798 -0.14117727
0.41951442 -0.96065784 0.2502331 0.20768633 -0.5999113 -0.17403473 0.28888565 -0.55389
0.10966374 0.042608883 0.28146937 0.32357702 0.28198832 0.4980267 -0.09736223 0.28868055
-0.24343033 -0.3527288 -0.6952484 -0.1717896 0.09669314 -0.22174619 0.005794192 -0.035326894
-0.6472262 -0.7901002 -0.18293244 -0.24218222 -0.37180662 -0.37733936 -0.115829475 0.27730116
-0.21593376 -0.4611734 -0.037255123 0.14559847 -0.32816708 -0.53715354 -0.20325011 -0.82469034
-0.16507605 -0.34182182 -0.05745221 -0.4114964 -0.19417161 -0.5716533 -0.14968908 -0.048883412
-0.045066584 0.20982881 -0.4638291 -0.50458294 -0.61351764 -0.43672472 0.26818398 -0.5441496
-0.39370945 -0.9684844 -0.20126374 0.13968244 -0.62791294 -0.76853704 -0.07882228 -0.09930178
-0.2664565 -0.36345065 -0.30716696 -0.48367533 -0.5050168 0.38828617 -0.43959054 -0.38694814
-0.24751157 -0.64025885 -0.5732422 -0.2250752 0.19186947 -0.0021553233 -0.4604515 -0.23850879
0.04730646 -0.23256247 0.49446777 0.042879272 -0.4117395 -0.34135613 -0.06637693 0.068360925
-0.63281715 -0.20784068 0.21638207 -0.5099001 -0.16657954 0.36353016 -0.6050856 -0.2094232
0.19497922 0.14799179 -0.21125273 -0.26944917 -0.2766774 -0.2961258 0.16146462 -0.19676517
-0.07646754 0.09353122 -0.5799473 -0.01906164 -0.08426077 0.24358739 -0.38408786 -0.5488916
-0.8388718 0.11853961 -0.36806604 0.21190389 -0.6647939 -0.15985154 -0.2548996 -0.048293103
-0.18849751 -0.09811226 0.041764982 0.0045073223 0.315753 -0.32280535 0.020615598 -0.55284256
0.19195142 0.024836766 -0.58877796 -0.25246257 -0.28321618 0.2293553 -0.22336672 0.2888161
0.24895473 -0.32490665 0.37300658 -0.2538832 0.022629168 -0.1983264 -0.55991215 -0.41206017
-0.266528 -0.61565536 -0.9696793 0.037844718 -0.14975795 0.04367196 0.08994405 -0.7487684
0.04905538 -0.33924592 0.0067106844 -0.44167945 0.21210995 0.100712284 0.35494906 -0.22860764
0.38694832 -0.48748174 -0.21802364 -0.08964045 -0.13614275 -0.40925366 -0.7194649 -0.22250524
-0.8381313 0.11105658 -0.18717319 0.37122065 -0.5359757 -0.6583083 -0.8325321 -0.57313883
0.027968157 -0.43787125 -0.34017885 -0.37893116 -0.03358789 -0.55779785 -0.7646134 0.366005
-0.2817026 -0.11697141 -0.2022065 -0.77671546 -0.40296498 -0.47376063 -0.6028074 -0.2026801
-0.21703164 -0.2720094 0.343496 0.30317143 0.2553494 -0.2910321 0.26082578 -0.5624191
00000000: dc0d 8b3d 8d89 043f f5b8 c33e 85df 38bf
00000010: abe8 b7be b54e adbe c8e3 d7be b11f e93c
00000020: c0d9 0cbe d3c5 7cbe 06f3 ccbe 7bb5 75be
00000030: c068 b43e 7dbc 7abf ef0d 45bf 7871 3fbf
00000040: 4163 84bc 2bd2 ab3d f6f1 30bf e226 e9bc
00000050: 0aef 91bc 5952 0bbe 99d9 a6be a61e 28be
00000060: 87d9 79be d8e1 51be d121 44bf ca5d bdbe
00000070: 0ba9 073e 9df1 8abe 1775 9d3e 3803 c23e
00000080: 69aa 1bbf c653 29be f842 013d 309e 4abf
00000090: 5829 b3bb c63e 8fbd 9271 c9bd 7520 34bf
000000a0: 1fb5 86bf 3d9f d23b a820 3a3e 6889 fabe
000000b0: b4dc a9be 403c 07bf afea e6be 997b 0cbf
000000c0: 846a 0e3f 6788 bebe 15da 2e3e a012 e6be
000000d0: 7d31 a63c 6e20 41be 84d0 563e c690 10be
000000e0: 98ca d63e aced 75bf 8e1e 803e baab 543e
000000f0: c993 19bf 2936 32be d2e8 933e bccb 0dbf
00000100: 6297 e03d a786 2e3d c11c 903e e3ab a53e
00000110: c660 903e 5bfd fe3e d965 c7bd f0cd 933e
00000120: cd45 79be df98 b4be cdfb 31bf 9de9 2fbe
00000130: 0e07 c63d 6f11 63be 35dd bd3b efb2 10bd
00000140: 9eb0 25bf 0244 4abf a452 3bbe 9efe 77be
00000150: 705d bebe a032 c1be 0138 edbd 6bfa 8d3e
00000160: bd1d 5dbe eb1e ecbe d498 18bd c417 153e
00000170: 8405 a8be e582 09bf cc20 50be e81e 53bf
00000180: b209 29be 4503 afbe 0253 6bbd a8af d2be
00000190: ecd4 46be df57 12bf 1848 19be f939 48bd
000001a0: bd97 38bd 5ddd 563e 027b edbe 592c 01bf
000001b0: 7e0f 1dbf 629a dfbe 694f 893e 634d 0bbf
000001c0: 4994 c9be 98ee 77bf 1518 4ebe ea08 0f3e
000001d0: e7be 20bf d8be 44bf 936d a1bd bb5e cbbd
000001e0: fd6c 88be 3416 babe fd44 9dbe 4ba4 f7be
000001f0: c848 01bf 72cd c63e 0312 e1be 111e c6be
00000200: ac73 7dbe 01e8 23bf 00c0 12bf 1d7a 66be
00000210: 6e79 443e 5340 0dbb 4dc0 ebbe a63b 74be
00000220: 6bc4 413d db24 6ebe e12a fd3e 2da2 2f3d
00000230: 85cf d2be 3bc6 aebe a1f0 87bd d000 8c3d
00000240: 4e00 22bf 30d4 54be 4393 5d3e d088 02bf
00000250: d493 2abe a020 ba3e e4e6 1abf 0973 56be
00000260: a2a8 473e 298b 173e a352 58be 3ef5 89be
00000270: a9a8 8dbe cd9d 97be fb56 253e cf7c 49be
00000280: 039b 9cbd 4c8d bf3d 6d77 14bf 2827 9cbc
00000290: e990 acbd f96e 793e 2aa7 c4be 2984 0cbf
000002a0: 4dc0 56bf e5c4 f23d 2773 bcbe 55fd 583e
000002b0: ef2f 2abf 1fb0 23be 3382 82be fdce 45bd
000002c0: 7e05 41be 15ef c8bd c211 2b3d 29b2 933b
000002d0: 61aa a13e be46 a5be 0be2 a83c 1787 0dbf
000002e0: ea8e 443e 7976 cb3c 27ba 16bf c642 81be
000002f0: b601 91be 1edc 6a3e 3fba 64be b4df 933e
00000300: fded 7e3e 2a5a a6be b8fa be3e fbfc 81be
00000310: ce60 b93c 1316 4bbe 6756 0fbf 8df9 d2be
00000320: 5c76 88be 979b 1dbf e73c 78bf 1003 1b3d
00000330: 265a 19be 5ee1 323d 9634 b83d 49af 3fbf
00000340: 4bee 483d a4b1 adbe 4de5 db3b cf23 e2be
00000350: 5a33 593e 3e42 ce3d e2bb b53e 1f18 6abe
00000360: 171e c63e 3597 f9be 9741 5fbe 6a95 b7bd
00000370: 0169 0bbe b289 d1be da2e 38bf 6ad8 63be
00000380: c68f 56bf a271 e33d 54aa 3fbe a210 be3e
00000390: b435 09bf e586 28bf d320 55bf 3ab9 12bf
000003a0: 7a1d e53c a930 e0be ec2b aebe 4403 c2be
000003b0: 7593 09bd d7cb 0ebf b4bd 43bf 0265 bb3e
000003c0: 533b 90be b58e efbd 390f 4fbe d3d6 46bf
000003d0: 6d51 cebe c190 f2be 9651 1abf 5f8b 4fbe
000003e0: 8b3d 5ebe d144 8bbe b5de af3e 4939 9b3e
000003f0: 28bd 823e 2902 95be f58a 853e b3fa 0fbf

l2.weight f4 [300, 400]
-0.027709221 -0.97372246 0.1095148 -0.7613434 0.42192605 0.2585101 -0.28687698 0.07069677
-0.79472214 -0.34390193 -0.005307827 -0.33973533 -0.16762191 -0.18497568 -0.88918793 -0.010763217
-0.25605887 0.18630628 -0.02760703 0.09482005 0.0035799681 -0.006524896 0.23079057 -0.44618088
0.14473876 -0.04230144 -0.045025125 0.08639127 -0.7184187 0.0054499973 0.0396551 -0.5585632
0.10138706 -1.2149026 -0.03298469 -0.83637464 -0.082785 -0.05442568 0.14862166 1.0245383
-0.57136536 -1.0802405 -1.4420203 -0.6485877 -0.47182983 -0.00045242906 0.14123884 0.08604706
-1.0532923 -0.28063908 -0.111853875 0.077813864 -0.07558743 -0.35436845 -0.18863074 -0.9305352
-2.1600351 0.28201568 -0.094463445 0.005380593 1.4397187 0.24340406 -0.36201537 0.48004472
0.061203968 -0.44012615 -0.30027667 -0.079453476 0.089307494 0.11488886 -0.95724434 -0.21730399
-0.41984022 -0.580228 0.16577135 -1.1009446 -0.10363334 0.004493025 -0.32098016 -0.52121043
0.042410433 0.1550619 -0.17211147 -0.21213786 -0.049794216 0.08644544 0.0021929215 0.09350598
-0.9119766 0.037218653 -0.01881354 -0.44543982 -0.39519015 0.044734154 0.010524927 0.6824651
-0.008923014 0.051229015 -0.2717176 0.0674168 -0.494573 0.06526434 0.3343366 0.6269013
0.095948175 -0.12898806 0.48073602 0.33600605 0.49784884 0.0996859 0.37845743 -0.22669332
0.26755542 -0.68993586 0.057360876 0.22907838 -0.06788253 0.16998796 0.0666701 -0.4573029
-0.19698127 0.14251213 -1.3148915 1.312914 -0.13152154 -0.046165686 0.19923863 0.16237111
0.23150863 0.1876459 -0.7095978 -0.369341 0.1742453 0.055180527 -0.15663241 -1.2939506
0.020296792 -0.0111307325 -0.210995 -0.13468021 -0.08709844 0.104316264 -2.2421606 -0.18264614
0.03743148 -0.3384636 -0.21611314 -0.36712822 -0.13716972 -0.008516552 0.2902953 -0.09771891
0.027496979 -0.13658161 -0.4486527 -0.12852691 -0.6190496 0.0959445 -0.47338006 -0.3062937
-0.0063210335 0.008517118 0.04546976 -0.27874622 -0.18555252 -1.4468551 0.06841538 0.5407292
0.82893693 0.065288305 -0.09443013 -0.22009069 0.06274632 -0.339175 -0.8775238 -0.0016104253
1.0104378 -0.051467232 0.36080217 -0.29340118 -0.11954062 0.26392314 0.122200675 -0.719016
0.059530415 -0.13049401 0.055067193 -0.48188838 -0.09476047 0.0727455 0.016807845 -0.33130184
-0.14843024 0.011141949 -0.3023859 -0.88102 0.052861914 0.017094726 0.08177501 0.30293843
-0.18230622 -1.2470301 -0.79763967 -0.49318328 0.2072743 0.24501008 0.15484685 0.03930811
0.43833572 -0.354873 0.17344725 0.10098065 -0.33235157 -0.10949164 0.017930528 -0.07705993
-0.7026176 -0.06625473 -0.33141422 0.045057915 -0.026108393 -0.4516377 0.09424482 -1.3054172
1.1608124 0.12167852 0.04351934 -0.21369536 0.05673758 -0.5875495 0.8040559 -0.0013120358
-0.4091248 1.5634564 -0.03188885 0.165533 -0.053905293 -0.2768134 0.30829164 0.023779156
-1.0478302 -0.43428266 -0.1624598 0.25079215 -0.00039086584 0.007402573 -0.15041947 0.0811278
0.20751403 -0.32819438 -1.806477 0.08985881 0.101697706 -0.42706555 -0.25066242 0.25761002
00000000: 73fe e2bc e045 79bf 4c49 e03d 67e7 42bf
00000010: b106 d83e 705b 843e 8ae1 92be 78c9 903d
00000020: e972 4bbf ea13 b0be 48ed adbb caf1 adbe
00000030: 14a5 2bbe 446a 3dbe d2a1 63bf 3458 30bc
00000040: 261a 83be 13c7 3e3e 2328 e2bc 0431 c23d
00000050: e69d 6a3b cbce d5bb 5d54 6c3e d271 e4be
00000060: 6636 143e 4644 2dbd 446c 38bd e8ed b03d
00000070: 4aea 37bf e495 b23b 636d 223d fffd 0ebf
00000080: 05a4 cf3d ee81 9bbf f41a 07bd a61c 56bf
00000090: 2f8b a9bd 76ed 5ebd 4730 183e 1224 833f
000000a0: 0045 12bf 5245 8abf 1f94 b8bf d809 26bf
000000b0: ae93 f1be 0034 edb9 eaa0 103e 7139 b03d
000000c0: 48d2 86bf edaf 8fbe a513 e5bd e05c 9f3d
000000d0: 95cd 9abd c86f b5be 6b28 41be 8e37 6ebf
000000e0: 043e 0ac0 5c64 903e 0d76 c1bd af4f b03b
000000f0: b448 b83f ea3e 793e 145a b9be 6cc8 f53e
00000100: 03b1 7a3d 3758 e1be ddbd 99be 81b8 a2bd
00000110: d9e6 b63d da4a eb3d f70d 75bf f084 5ebe
00000120: 4cf5 d6be d289 14bf f7bf 293e c1eb 8cbf
00000130: b73d d4bd 3a3a 933b 8357 a4be 0c6e 05bf
00000140: 90b6 2d3d 8cc8 1e3e fd3d 30be ab3a 59be
00000150: 05f5 4bbd 4f0a b13d 1eb7 0f3b 1080 bf3d
00000160: 4c77 69bf 9672 183d da1e 9abc b010 e4be
00000170: 5d56 cabe 293b 373d be70 2c3c 08b6 2e3f
00000180: d531 12bc 84d5 513d 921e 8bbe d211 8a3d
00000190: ac38 fdbe 4fa9 853d 2b2e ab3e 9b7c 203f
000001a0: 7a80 c43d 7215 04be 0823 f63e fc08 ac3e
000001b0: 0be6 fe3e 1f28 cc3d 2cc5 c13e 4b22 68be
000001c0: 06fd 883e a39f 30bf 3df3 6a3d 8693 6a3e
000001d0: ff05 8bbd 5311 2e3e 558a 883d 9b23 eabe
000001e0: 75b5 49be b3ee 113e 5d4e a8bf 910d a83f
000001f0: 95ad 06be 3b18 3dbd 3605 4c3e 9d44 263e
00000200: 9910 6d3e 3f26 403e 34a8 35bf 431a bdbe
00000210: 5c6d 323e fa04 623d 3f64 20be 2ca0 a5bf
00000220: 7545 a63c ad5d 36bc 130f 58be 9ce9 09be
00000230: ab60 b2bd c4a3 d53d 8f7f 0fc0 9707 3bbe
00000240: c051 193d 1a4b adbe c34c 5dbe 3bf8 bbbe
00000250: 3876 0cbe 0289 0bbc 96a1 943e da20 c8bd
00000260: 5841 e13c 0ddc 0bbe cfb5 e5be 8f9c 03be
00000270: 097a 1ebf 8d7e c43d df5e f2be 87d2 9cbe
00000280: ac20 cfbb 628b 0b3c 803e 3a3d d3b7 8ebe
00000290: 7b01 3ebe 8c32 b9bf 5d1d 8c3d 3b6d 0a3f
000002a0: 3635 543f e0b5 853d 9664 c1bd 745f 61be
000002b0: 2581 803d 58a8 adbe 66a5 60bf e814 d3ba
000002c0: 0756 813f 4ecf 52bd 10bb b83e ae38 96be
000002d0: b6d1 f4bd ef20 873e 5944 fa3d 6f11 38bf
000002e0: 2ad6 733d 39a0 05be 238e 613d 13ba f6be
000002f0: c711 c2bd 98fb 943d 9bb0 893c 65a0 a9be
00000300: 19fe 17be b98c 363c 53d2 9abe 878a 61bf
00000310: bc85 583d 3d0a 8c3c a879 a73d bf1a 9b3e
00000320: 7bae 3abe af9e 9fbf 1d32 4cbf 8582 fcbe
00000330: b73f 543e ece3 7a3e 2c90 1e3e 8a01 213d
00000340: 8a6d e03e eab1 b5be 289c 313e f1ce ce3d
00000350: fc29 aabe 273d e0bd 0be3 923c 99d1 9dbd
00000360: bfde 33bf 8fb0 87bd 20af a9be a68e 383d
00000370: 45e1 d5bc 0e3d e7be 6e03 c13d e917 a7bf
00000380: 8095 943f 9732 f93d 5641 323d f5d2 5abe
00000390: aa65 683d a569 16bf 9cd6 4d3f 9ef8 abba
000003a0: ce78 d1be 571f c83f e29d 02bd 7c81 293e
000003b0: cccb 5cbd 7cba 8dbe 67d8 9d3e 81cc c23c
000003c0: 4d1f 86bf 4c5a debe dd5b 26be d467 803e
000003d0: 20ed ccb9 4891 f23b 9007 1abe 5526 a63d
000003e0: 8f7e 543e 1809 a8be a33a e7bf e507 b83d
000003f0: e346 d03d 56a8 dabe d356 80be 76e5 833e

l2.bias f4 [300]
-0.020567976 -0.036037665 0.010563769 -0.04167428 -0.055781115 -0.012066273 0.03183625 -0.0755552
-0.015032943 0.015089107 -0.053015757 0.033128683 0.123641424 -0.00123853 -0.030047871 0.014655568
-0.059640456 -0.12951016 -0.4881138 0.1203179 -0.026433378 0.022251183 0.04069769 -0.038154047
-0.030986631 0.04181054 -0.09362336 -0.052165747 -0.18646511 0.022351597 -0.010113843 0.089976996
0.15916824 -0.06672088 -0.03112055 -0.055451863 -0.2698364 -0.05822129 -0.025585799 0.043736283
-0.29257202 -0.02229173 -0.051318627 -0.027347527 -0.19269127 -0.039853614 -0.035115764 -0.054545388
-0.13013323 0.016448384 0.007581148 -0.095724635 -0.044143565 -0.03591602 -0.051374935 -0.11179444
0.022205321 -0.36215812 0.010563842 -0.037116535 -0.040763095 -0.040509272 0.02265102 -0.06965465
0.15497358 -0.04147931 -0.10617976 -0.038961098 -0.024853926 0.04138397 0.14535967 -0.017225362
-0.052713875 0.01552115 -0.05948939 0.106176615 0.020653585 -0.005754762 -0.17869748 0.014692699
-0.0456328 -0.2668327 0.006981462 -0.028191876 -0.036701452 0.01964058 0.012469048 0.022106042
-0.028454447 -0.095486894 -0.06096906 -0.04722536 -0.31558532 -0.03827439 -0.17816447 -0.04158848
-0.0066213403 0.18775642 -0.032231994 0.04020598 0.32583168 0.07490452 -0.022835478 0.07024457
-0.045377266 -0.0837654 -0.033069894 -0.039845042 0.038465377 0.022059605 0.003940103 0.034852073
-0.026213462 0.03786683 -0.027695201 0.018656794 0.0048458534 0.04026213 0.0074542207 0.040549777
0.08940612 3.6617017e-05 -0.048046924 -0.031792548 -0.07032 -0.09382285 0.00076079165 0.022483801
-0.26553944 -0.045906734 0.07878198 -0.060394555 0.023867851 0.032390907 0.10594421 -0.10073611
-0.07978312 -0.054900054 -0.027436195 -0.03274732 0.004762733 -0.019245366 0.0042710514 -0.081466615
0.0028566583 4.187381e-05 -0.043592315 -0.05496393 0.09384201 -0.010520395 -0.008921142 -0.039140202
-0.0018269673 -0.025021428 -0.0076475344 -0.06894116 0.013770354 0.0054719257 -0.0028288784 0.025844336
0.0025835137 -0.033512395 -0.08594123 -0.033256635 0.01841363 0.018180728 0.18721981 0.037108425
-0.04924011 -0.07506902 -0.033501003 -0.0070959795 0.1149775 0.03943256 0.03301623 -0.0003608492
-0.088126905 0.16559108 -0.30076355 -0.18942201 -0.008798177 -0.05068766 -0.055985585 -0.06830579
-0.02704149 -0.047450867 -0.052463096 -0.030344633 -0.044354953 -0.1600404 0.019034896 -0.66835564
-0.07538496 -0.094976544 -0.12161752 0.033773277 -0.026856067 0.023433749 -0.00954012 -6.478141e-05
-0.0039153025 -0.112655036 -0.053124122 0.012323143 -0.003663993 0.3157583 -0.051936116 -0.02869039
0.041831624 -0.0117942775 -0.043179423 -0.03726423 -0.15944374 -0.019322006 -0.047291305 0.040536873
-0.021801244 -0.09005765 -0.006002898 -0.10337544 -0.0035625987 -0.035344508 0.20985387 -0.009867323
0.015783705 0.020527378 -0.053439684 -0.09166463 -0.084332995 -0.06159633 -0.023307387 0.110684454
-0.040453225 -0.039656866 0.011585088 -0.019314358 -0.036517896 -0.0562988 -0.020691741 -0.012465645
-0.018271577 0.008534541 0.022872435 -0.04793796 -0.058827307 -0.11043747 0.0076434365 0.023410786
-0.059255004 0.022856586 -0.052985024 0.07307553 -0.03305582 -0.072969794 0.02856681 0.07467462
00000000: 2c7e a8bc 3b9c 13bd a913 2d3c a6b2 2abd
00000010: bd7a 64bd 9eb1 45bc ba66 023d afbc 9abd
00000020: bc4c 76bc 4d38 773c 0d27 59bd f1b1 073d
00000030: b737 fd3d 2c56 a2ba f426 f6bc e81d 703c
00000040: 8d49 74bd 509e 04be 0dea f9be 3b69 f63d
00000050: d08a d8bc 1d48 b63c 9fb2 263d 6b47 1cbd
00000060: add7 fdbc 8741 2b3d 9bbd bfbd c0ab 55bd
00000070: b6f0 3ebe b21a b73c 88b4 25bc dc45 b83d
00000080: 00fd 223e f5a4 88bd 86f0 febc 7e21 63bd
00000090: ff27 8abe 7379 6ebd 4f99 d1bc d124 333d
000000a0: 00cc 95be 259d b6bc 7b33 52bd ec07 e0bc
000000b0: dc50 45be 8b3d 23bd 8cd5 0fbd fc6a 5fbd
000000c0: a541 05be c3be 863c 476b f83b 470b c4bd
000000d0: e2cf 34bd ad1c 13bd 866e 52bd 7cf4 e4bd
000000e0: efe7 b53c ca6c b9be f713 2d3c 8207 18bd
000000f0: 34f7 26bd 0ded 25bd a28e b93c 19a7 8ebd
00000100: 65b1 1e3e 35e6 29bd c674 d9bd ac95 1fbd
00000110: 769a cbbc 3d82 293d 2ad9 143e 341c 8dbc
00000120: 81ea 57bd 6c4c 7e3c 26ab 73bd 2073 d93d
00000130: b531 a93c 7192 bcbb 79fc 36be a5b9 703c
00000140: 75e9 3abd 4c9e 88be bfc4 e43b a6f2 e6bc
00000150: 4354 16bd 48e5 a03c fa4a 4c3c bb17 b53c
00000160: 4d19 e9bc a28e c3bd b1ba 79bd 616f 41bd
00000170: 6694 a1be 9bc5 1cbd bf70 36be af58 2abd
00000180: d4f7 d8bb 3843 403e b205 04bd 07af 243d
00000190: 69d3 a63e 8a67 993d 7811 bbbc 63dc 8f3d
000001a0: 83dd 39bd 328d abbd 4c74 07bd 8e34 23bd
000001b0: df8d 1d3d 58b6 b43c fb1b 813b 0cc1 0e3d
000001c0: 9dbd d6bc 401a 1b3d 0ce1 e2bc 22d6 983c
000001d0: f7c9 9e3b e7e9 243d 8942 f43b 8617 263d
000001e0: 8e1a b73d 3995 1938 dacc 44bd e738 02bd
000001f0: ef03 90bd 3226 c0bd dd6f 473a f32f b83c
00000200: c9f4 87be b308 3cbd 7258 a13d 4860 77bd
00000210: 8386 c33c 54ac 043d 47f9 d83d bc4e cebd
00000220: 5565 a3bd e1de 60bd dfc1 e0bc 0e22 06bd
00000230: b310 9c3b 75a8 9dbc 2df4 8b3b f8d7 a6bd
00000240: c636 3b3b a9a1 2f38 db8d 32bd dc21 61bd
00000250: 3d30 c03d bc5d 2cbc fb29 12bc 7a51 20bd
00000260: da76 efba bdf9 ccbc 2b98 fabb 0631 8dbd
00000270: 0d9d 613c d74d b33b b464 39bb 80b7 d33c
00000280: 2b50 293b 4b44 09bd f501 b0bd 1c38 08bd
00000290: 2ed8 963c c0ef 943c 8db6 3f3e 01ff 173d
000002a0: ffaf 49bd c9bd 99bd 5938 09bd 6485 e8bb
000002b0: 5379 eb3d 0984 213d 073c 073d 5c30 bdb9
000002c0: e17b b4bd b590 293e aefd 99be d8f7 41be
000002d0: 3b26 10bc dd9d 4fbd 2451 65bd e8e3 8bbd
000002e0: 1d86 ddbc d75b 42bd 8be3 56bd 4f95 f8bc
000002f0: 8aad 35bd a1e1 23be 12ef 9b3c 5b19 2bbf
00000300: 6e63 9abd 1083 c2bd 9b12 f9bd d955 0a3d
00000310: 4101 dcbc 22f8 bf3c 2a4e 1cbc 41db 87b8
00000320: f04b 80bb afb7 e6bd ae98 59bd 02e7 493c
00000330: 9a1f 70bb 12ab a13e f7ba 54bd 1c08 ebbc
00000340: a357 2b3d c93c 41bc e8dc 30bd 61a2 18bd
00000350: 3845 23be 2f49 9ebc 87b4 41bd fe09 263d
00000360: 8698 b2bc 2570 b8bd f5b3 c4bb 81b6 d3bd
00000370: 7d7a 69bb 67c5 10bd efe3 563e 8daa 21bc
00000380: d44c 813c 0829 a83c 92e3 5abd aaba bbbd
00000390: c7b6 acbd 6f4c 7cbd 22ef bebc 88ae e23d
000003a0: 48b2 25bd 3d6f 22bd 62cf 3d3c 2539 9ebc
000003b0: ca93 15bd 9299 66bd ba81 a9bc b43c 4cbc
000003c0: 46ae 95bc 76d4 0b3c f95e bb3c 985a 44bd
000003d0: e7f4 70bd 0a2d e2bd cb75 fa3b fac7 bf3c
000003e0: 60b5 72bd bc3d bb3c d306 59bd a0a8 953d
000003f0: 8a65 07bd 3071 95bd f104 ea3c 02ef 983d

l3.weight f4 [1, 300]
-0.46764612 -0.46504351 0.02991261 0.052982245 -0.03519167 0.008637175 0.006283049 0.027576484
0.0012634678 0.024102319 0.004628659 -0.020848108 -0.36395246 0.00385889 0.017089577 -0.008431834
-0.00024950886 -0.0113074 0.7273544 -0.6234222 -0.003658786 0.03958505 -0.017819019 -0.021613741
0.28207418 0.035047457 0.014089251 0.027793685 -0.964473 -0.03870022 -0.1404342 0.005590848
-1.0259261 0.03502431 0.01959757 -0.0012444177 0.0074336505 -0.015890151 -0.0038640057 0.007995136
-0.0086638145 -0.013953606 -0.033848044 -0.02903693 0.009029911 0.04280042 0.00647277 0.0054397006
0.0035591098 -0.023140129 -0.0400935 0.07363039 0.044648446 0.02650416 -0.031637013 0.037270207
0.010503902 -0.12297483 -0.023491882 0.025752705 0.015032259 -0.030729087 0.008780276 0.01508988
0.13211814 -0.022863133 -0.16647065 0.013727324 -0.0055342885 -0.48190108 -0.5168727 0.026727257
0.004237773 0.07761589 0.0020395736 0.1710442 0.045363992 0.9086449 -0.12368426 0.0019932103
0.028548192 0.02534841 0.0005596193 0.030603226 0.014590409 -0.024352968 0.012351686 0.040759087
-0.005436036 -0.39215195 0.00026993462 -0.016306644 0.21141033 -0.023262685 0.4489045 0.066204086
-0.012115248 0.77446574 0.00244067 0.024736451 0.35728374 1.1455995 0.034506656 -0.2980039
0.027947979 0.010120386 0.03650998 -0.006936078 0.026352458 -0.005130709 -0.003822777 0.6685355
0.016228272 -0.01988795 -0.2040083 0.030119484 0.0011103192 -0.028048655 -0.040186618 -0.009011189
-0.3739217 0.10062183 -0.5951679 -0.01022923 -0.36878508 0.024603987 0.033908736 0.00032618726
-0.46310905 0.04554184 -0.47472864 -0.026249507 0.0017617907 -0.033354793 -0.44758913 0.42924613
-0.012098364 -0.034738563 9.1611e-05 -0.01966787 -0.028326895 -0.041959856 0.03157728 -0.023286927
0.0044078333 0.020643322 -0.013722267 0.0012586624 0.30525222 -0.02393898 0.0304791 -0.03214663
-0.04374649 0.029992884 0.03072267 0.04610283 0.036573563 -0.013443044 0.0007573736 -0.012164987
-0.034902673 0.033013538 1.686246 0.000792752 0.027841087 -0.044957682 1.0163164 -0.037637606
-0.023405207 -0.021889161 0.031784777 -9.179175e-05 -1.2615888 -0.024948401 0.03704586 -0.0477421
0.018130478 -0.71582186 0.20995232 -0.26933235 0.00077611883 -0.037093624 -0.026141867 -0.024889544
0.012927294 -0.00533579 0.0017859341 1.1162616 0.0029253145 -0.52279216 -0.008353408 -0.28418234
0.0017552285 0.015851395 -0.044792883 0.0168913 0.048947915 -0.31271663 -0.01099031 0.016186815
-0.191997 -0.026934046 0.0016955107 -0.028805774 0.28713956 0.33525828 0.0192821 -0.033740174
-0.030806607 -0.0019644967 0.011115378 0.0021891706 -0.114219725 -0.017663103 0.049340323 -0.0012927253
0.00032882858 0.050949197 0.00024720485 -0.010243387 0.010031823 0.02205147 0.60324144 -0.012611676
-0.03511012 0.055227008 -0.022295542 0.003722468 -0.004673343 -0.045636326 0.0019341446 -1.455386
-0.00038185684 -0.03787208 0.0040244367 0.00017180847 0.011413676 0.0042476365 -0.02716909 -0.0146017885
-0.023351815 0.0039394703 0.017569032 0.0020451618 0.010874957 0.00034062716 -0.57440203 -0.33551973
-0.00057991577 0.035041437 -0.0062938626 -0.3441633 -0.027088607 0.004723468 -0.04284875 -0.21063705
00000000: 506f efbe 2f1a eebe 4a0b f53c e903 593d
00000010: 2425 10bd f082 0d3c 09e2 cd3b 14e8 e13c
00000020: f29a a53a 3a72 c53c 02ac 973b a7c9 aabc
00000030: fa57 babe 6ee5 7c3b 71ff 8b3c ad25 0abc
00000040: 83d0 82b9 ac42 39bc e633 3a3f 9998 1fbf
00000050: 3ec8 6fbb ef23 223d 31f9 91bc 4d0f b1bc
00000060: 076c 903e ec8d 0f3d 9ad6 663c 95af e33c
00000070: b4e7 76bf 1f84 1ebd fccd 0fbe 6f33 b73b
00000080: 8c51 83bf a775 0f3d 158b a03c bb1b a3ba
00000090: fb95 f33b 102c 82bc 423b 7dbb 08fe 023c
000000a0: acf2 0dbc aa9d 64bc 3fa4 0abd dbde edbc
000000b0: 31f2 133c 7e4f 2f3d 8819 d43b 843f b23b
000000c0: f43f 693b 5e90 bdbc 1539 24bd 88cb 963d
000000d0: 4ae1 363d 411f d93c d095 01bd a5a8 183d
000000e0: 8f18 2c3c 3ada fbbd 0c72 c0bc 56f7 d23c
000000f0: dd49 763c 91bb fbbc 26db 0f3c 8b3b 773c
00000100: fa49 073e 774b bbbc 4877 2abe 92e8 603c
00000110: fa58 b5bb bdbb f6be c551 04bf 1ff3 da3c
00000120: 04dd 8a3b 14f5 9e3d 5eaa 053b 3626 2f3e
00000130: 98cf 393d f49c 683f 2c4e fdbd 85a0 023b
00000140: e6dd e93c 78a7 cf3c 6ab3 123a 9eb3 fa3c
00000150: 9c0c 6f3c e07f c7bc ba5e 4a3c 00f3 263d
00000160: c620 b2bb 24c8 c8be 0386 8d39 8395 85bc
00000170: f37b 583e 6391 bebc d0d6 e53e 0296 873d
00000180: 087f 46bc 6343 463f a6f3 1f3b 19a4 ca3c
00000190: e5ed b63e 01a3 923f da56 0d3d f893 98be
000001a0: 29f3 e43c facf 253c 7d8b 153d 0a48 e3bb
000001b0: 1ce1 d73c 821f a8bb 8e87 7abb 2425 2b3f
000001c0: 27f1 843c 0eec a2bc 8de7 50be 23bd f63c
000001d0: 2188 913a 4bc6 e5bc b99a 24bd aba3 13bc
000001e0: aa72 bfbe d112 ce3d ec5c 18bf 8098 27bc
000001f0: 66d1 bcbe 4d8e c93c e3e3 0a3d 1d04 ab39
00000200: a11c edbe 158a 3a3d a20f f3be 3509 d7bc
00000210: e3eb e63a 099f 08bd 672a e5be 26c6 db3e
00000220: 3738 46bc 064a 0ebd 481f c038 831e a1bc
00000230: ce0d e8bc 19de 2bbd 2e57 013d 3ac4 bebc
00000240: 966f 903b 2f1c a93c 5cd3 60bc b4f9 a43a
00000250: 054a 9c3e ae1b c4bc 4eaf f93c 2fac 03bd
00000260: 852f 33bd a3b3 f53c 1cae fb3c 52d6 3c3d
00000270: 29ce 153d 3740 5cbc 7b8a 463a a74f 47bc
00000280: 1bf6 0ebd 3439 073d e9d6 d73f b0d0 4f3a
00000290: fe12 e43c 8c25 38bd a816 823f e429 1abd
000002a0: 47bc bfbc e650 b3bc c130 023d 5280 c0b8
000002b0: be7b a1bf 9760 ccbc 66bd 173d 388d 43bd
000002c0: 5e86 943c 1a40 37bf befd 563e eee5 89be
000002d0: 7474 4b3a 7cef 17bd 7827 d6bc 28e5 cbbc
000002e0: 00cd 533c dad7 aebb 0116 ea3a a9e1 8e3f
000002f0: a2b6 3f3b b5d5 05bf bcdc 08bc 5980 91be
00000300: b20f e63a c9da 813c be78 37bd a05f 8a3c
00000310: 9c7d 483d 651c a0be b410 34bc 369a 843c
00000320: dd9a 44be caa4 dcbc e63b de3a 16fa ebbc
00000330: f503 933e f9a6 ab3e 7ff5 9d3c 2333 0abd
00000340: 235e fcbc c9be 00bb 461d 363c 3078 0f3b
00000350: 08ec e9bd 36b2 90bc 1419 4a3d aa70 a9ba
00000360: a066 ac39 1bb0 503d 469b 8139 e1d3 27bc
00000370: 845c 243c 49a5 b43c 086e 1a3f 34a1 4ebc
00000380: a1cf 0fbd b735 623d 24a5 b6bc a6f4 733b
00000390: d822 99bb 28ed 3abd 2083 fd3a 174a babf
000003a0: f533 c8b9 c11f 1bbd 6cdf 833b 7c27 3439
000003b0: 6d00 3b3c c22f 8b3b b691 debc 573c 6fbc
000003c0: 4e4c bfbc ac16 813b eeec 8f3c 1f08 063b
000003d0: e02c 323c 3496 b239 030c 13bf 3ec9 abbe
000003e0: 7d05 18ba 9c87 0f3d bf3c cebb 2c36 b0be
000003f0: ede8 ddbc 52c7 9a3b 2c82 2fbd 3db1 57be
